…
2023-05-08T18:29:12,977 [INFO ] W-29500-benchmark_1.0-stdout MODEL_LOG - [PiPPy] Tracing model ...
2023-05-08T18:29:13,833 [INFO ] W-29500-benchmark_1.0-stdout MODEL_LOG - Pipeline is in evaluation mode, backward pass not generated
2023-05-08T18:29:13,835 [INFO ] W-29500-benchmark_1.0-stdout MODEL_LOG - Found device cuda:0 for rank 0
2023-05-08T18:29:13,836 [INFO ] W-29500-benchmark_1.0-stdout MODEL_LOG - GraphModule(
2023-05-08T18:29:13,836 [INFO ] W-29500-benchmark_1.0-stdout MODEL_LOG -   (submod_0): PipeStageModule(
2023-05-08T18:29:13,836 [INFO ] W-29500-benchmark_1.0-stdout MODEL_LOG -     (model_decoder_embed_tokens): Embedding(50272, 5120, padding_idx=1)
2023-05-08T18:29:13,836 [INFO ] W-29500-benchmark_1.0-stdout MODEL_LOG -     (model_decoder_layers_0_self_attn_layer_norm): LayerNorm((5120,), eps=1e-05, elementwise_affine=True)
2023-05-08T18:29:13,836 [INFO ] W-29500-benchmark_1.0-stdout MODEL_LOG -     (model_decoder_layers_0_self_attn_q_proj): Linear(in_features=5120, out_features=5120, bias=True)
2023-05-08T18:29:13,836 [INFO ] W-29500-benchmark_1.0-stdout MODEL_LOG -     (model_decoder_layers_0_self_attn_k_proj): Linear(in_features=5120, out_features=5120, bias=True)
2023-05-08T18:29:13,837 [INFO ] W-29500-benchmark_1.0-stdout MODEL_LOG -     (model_decoder_layers_0_self_attn_v_proj): Linear(in_features=5120, out_features=5120, bias=True)
2023-05-08T18:29:13,837 [INFO ] W-29500-benchmark_1.0-stdout MODEL_LOG -     (model_decoder_layers_0_self_attn_out_proj): Linear(in_features=5120, out_features=5120, bias=True)
2023-05-08T18:29:13,837 [INFO ] W-29500-benchmark_1.0-stdout MODEL_LOG -     (model_decoder_layers_0_final_layer_norm): LayerNorm((5120,), eps=1e-05, elementwise_affine=True)
2023-05-08T18:29:13,837 [INFO ] W-29500-benchmark_1.0-stdout MODEL_LOG -     (model_decoder_layers_0_fc1): Linear(in_features=5120, out_features=20480, bias=True)
2023-05-08T18:29:13,837 [INFO ] W-29500-benchmark_1.0-stdout MODEL_LOG -     (model_decoder_layers_0_activation_fn): ReLU()
2023-05-08T18:29:13,837 [INFO ] W-29500-benchmark_1.0-stdout MODEL_LOG -     (model_decoder_layers_0_fc2): Linear(in_features=20480, out_features=5120, bias=True)
2023-05-08T18:29:13,837 [INFO ] W-29500-benchmark_1.0-stdout MODEL_LOG -     (model_decoder_layers_1_self_attn_layer_norm): LayerNorm((5120,), eps=1e-05, elementwise_affine=True)
2023-05-08T18:29:13,837 [INFO ] W-29500-benchmark_1.0-stdout MODEL_LOG -     (model_decoder_layers_1_self_attn_q_proj): Linear(in_features=5120, out_features=5120, bias=True)
2023-05-08T18:29:13,837 [INFO ] W-29500-benchmark_1.0-stdout MODEL_LOG -     (model_decoder_layers_1_self_attn_k_proj): Linear(in_features=5120, out_features=5120, bias=True)
2023-05-08T18:29:13,837 [INFO ] W-29500-benchmark_1.0-stdout MODEL_LOG -     (model_decoder_layers_1_self_attn_v_proj): Linear(in_features=5120, out_features=5120, bias=True)
2023-05-08T18:29:13,837 [INFO ] W-29500-benchmark_1.0-stdout MODEL_LOG -     (model_decoder_layers_1_self_attn_out_proj): Linear(in_features=5120, out_features=5120, bias=True)
2023-05-08T18:29:13,837 [INFO ] W-29500-benchmark_1.0-stdout MODEL_LOG -     (model_decoder_layers_1_final_layer_norm): LayerNorm((5120,), eps=1e-05, elementwise_affine=True)
2023-05-08T18:29:13,837 [INFO ] W-29500-benchmark_1.0-stdout MODEL_LOG -     (model_decoder_layers_1_fc1): Linear(in_features=5120, out_features=20480, bias=True)
2023-05-08T18:29:13,837 [INFO ] W-29500-benchmark_1.0-stdout MODEL_LOG -     (model_decoder_layers_1_activation_fn): ReLU()
2023-05-08T18:29:13,838 [INFO ] W-29500-benchmark_1.0-stdout MODEL_LOG -     (model_decoder_layers_1_fc2): Linear(in_features=20480, out_features=5120, bias=True)
2023-05-08T18:29:13,838 [INFO ] W-29500-benchmark_1.0-stdout MODEL_LOG -     (model_decoder_layers_2_self_attn_layer_norm): LayerNorm((5120,), eps=1e-05, elementwise_affine=True)
2023-05-08T18:29:13,838 [INFO ] W-29500-benchmark_1.0-stdout MODEL_LOG -     (model_decoder_layers_2_self_attn_q_proj): Linear(in_features=5120, out_features=5120, bias=True)
2023-05-08T18:29:13,838 [INFO ] W-29500-benchmark_1.0-stdout MODEL_LOG -     (model_decoder_layers_2_self_attn_k_proj): Linear(in_features=5120, out_features=5120, bias=True)
2023-05-08T18:29:13,838 [INFO ] W-29500-benchmark_1.0-stdout MODEL_LOG -     (model_decoder_layers_2_self_attn_v_proj): Linear(in_features=5120, out_features=5120, bias=True)
2023-05-08T18:29:13,838 [INFO ] W-29500-benchmark_1.0-stdout MODEL_LOG -     (model_decoder_layers_2_self_attn_out_proj): Linear(in_features=5120, out_features=5120, bias=True)
2023-05-08T18:29:13,838 [INFO ] W-29500-benchmark_1.0-stdout MODEL_LOG -     (model_decoder_layers_2_final_layer_norm): LayerNorm((5120,), eps=1e-05, elementwise_affine=True)
2023-05-08T18:29:13,838 [INFO ] W-29500-benchmark_1.0-stdout MODEL_LOG -     (model_decoder_layers_2_fc1): Linear(in_features=5120, out_features=20480, bias=True)
2023-05-08T18:29:13,838 [INFO ] W-29500-benchmark_1.0-stdout MODEL_LOG -     (model_decoder_layers_2_activation_fn): ReLU()
2023-05-08T18:29:13,838 [INFO ] W-29500-benchmark_1.0-stdout MODEL_LOG -     (model_decoder_layers_2_fc2): Linear(in_features=20480, out_features=5120, bias=True)
2023-05-08T18:29:13,838 [INFO ] W-29500-benchmark_1.0-stdout MODEL_LOG -     (model_decoder_layers_3_self_attn_layer_norm): LayerNorm((5120,), eps=1e-05, elementwise_affine=True)
2023-05-08T18:29:13,838 [INFO ] W-29500-benchmark_1.0-stdout MODEL_LOG -     (model_decoder_layers_3_self_attn_q_proj): Linear(in_features=5120, out_features=5120, bias=True)
2023-05-08T18:29:13,838 [INFO ] W-29500-benchmark_1.0-stdout MODEL_LOG -     (model_decoder_layers_3_self_attn_k_proj): Linear(in_features=5120, out_features=5120, bias=True)
2023-05-08T18:29:13,838 [INFO ] W-29500-benchmark_1.0-stdout MODEL_LOG -     (model_decoder_layers_3_self_attn_v_proj): Linear(in_features=5120, out_features=5120, bias=True)
2023-05-08T18:29:13,838 [INFO ] W-29500-benchmark_1.0-stdout MODEL_LOG -     (model_decoder_layers_3_self_attn_out_proj): Linear(in_features=5120, out_features=5120, bias=True)
2023-05-08T18:29:13,838 [INFO ] W-29500-benchmark_1.0-stdout MODEL_LOG -     (model_decoder_layers_3_final_layer_norm): LayerNorm((5120,), eps=1e-05, elementwise_affine=True)
2023-05-08T18:29:13,839 [INFO ] W-29500-benchmark_1.0-stdout MODEL_LOG -     (model_decoder_layers_3_fc1): Linear(in_features=5120, out_features=20480, bias=True)
2023-05-08T18:29:13,839 [INFO ] W-29500-benchmark_1.0-stdout MODEL_LOG -     (model_decoder_layers_3_activation_fn): ReLU()
2023-05-08T18:29:13,839 [INFO ] W-29500-benchmark_1.0-stdout MODEL_LOG -     (model_decoder_layers_3_fc2): Linear(in_features=20480, out_features=5120, bias=True)
2023-05-08T18:29:13,839 [INFO ] W-29500-benchmark_1.0-stdout MODEL_LOG -     (model_decoder_layers_4_self_attn_layer_norm): LayerNorm((5120,), eps=1e-05, elementwise_affine=True)
2023-05-08T18:29:13,839 [INFO ] W-29500-benchmark_1.0-stdout MODEL_LOG -     (model_decoder_layers_4_self_attn_q_proj): Linear(in_features=5120, out_features=5120, bias=True)
2023-05-08T18:29:13,839 [INFO ] W-29500-benchmark_1.0-stdout MODEL_LOG -     (model_decoder_layers_4_self_attn_k_proj): Linear(in_features=5120, out_features=5120, bias=True)
2023-05-08T18:29:13,839 [INFO ] W-29500-benchmark_1.0-stdout MODEL_LOG -     (model_decoder_layers_4_self_attn_v_proj): Linear(in_features=5120, out_features=5120, bias=True)
2023-05-08T18:29:13,839 [INFO ] W-29500-benchmark_1.0-stdout MODEL_LOG -     (model_decoder_layers_4_self_attn_out_proj): Linear(in_features=5120, out_features=5120, bias=True)
2023-05-08T18:29:13,839 [INFO ] W-29500-benchmark_1.0-stdout MODEL_LOG -     (model_decoder_layers_4_final_layer_norm): LayerNorm((5120,), eps=1e-05, elementwise_affine=True)
2023-05-08T18:29:13,839 [INFO ] W-29500-benchmark_1.0-stdout MODEL_LOG -     (model_decoder_layers_4_fc1): Linear(in_features=5120, out_features=20480, bias=True)
2023-05-08T18:29:13,839 [INFO ] W-29500-benchmark_1.0-stdout MODEL_LOG -     (model_decoder_layers_4_activation_fn): ReLU()
2023-05-08T18:29:13,839 [INFO ] W-29500-benchmark_1.0-stdout MODEL_LOG -     (model_decoder_layers_4_fc2): Linear(in_features=20480, out_features=5120, bias=True)
2023-05-08T18:29:13,839 [INFO ] W-29500-benchmark_1.0-stdout MODEL_LOG -     (model_decoder_layers_5_self_attn_layer_norm): LayerNorm((5120,), eps=1e-05, elementwise_affine=True)
2023-05-08T18:29:13,839 [INFO ] W-29500-benchmark_1.0-stdout MODEL_LOG -     (model_decoder_layers_5_self_attn_q_proj): Linear(in_features=5120, out_features=5120, bias=True)
2023-05-08T18:29:13,839 [INFO ] W-29500-benchmark_1.0-stdout MODEL_LOG -     (model_decoder_layers_5_self_attn_k_proj): Linear(in_features=5120, out_features=5120, bias=True)
2023-05-08T18:29:13,839 [INFO ] W-29500-benchmark_1.0-stdout MODEL_LOG -     (model_decoder_layers_5_self_attn_v_proj): Linear(in_features=5120, out_features=5120, bias=True)
2023-05-08T18:29:13,839 [INFO ] W-29500-benchmark_1.0-stdout MODEL_LOG -     (model_decoder_layers_5_self_attn_out_proj): Linear(in_features=5120, out_features=5120, bias=True)
2023-05-08T18:29:13,840 [INFO ] W-29500-benchmark_1.0-stdout MODEL_LOG -     (model_decoder_layers_5_final_layer_norm): LayerNorm((5120,), eps=1e-05, elementwise_affine=True)
2023-05-08T18:29:13,840 [INFO ] W-29500-benchmark_1.0-stdout MODEL_LOG -     (model_decoder_layers_5_fc1): Linear(in_features=5120, out_features=20480, bias=True)
2023-05-08T18:29:13,840 [INFO ] W-29500-benchmark_1.0-stdout MODEL_LOG -     (model_decoder_layers_5_activation_fn): ReLU()
2023-05-08T18:29:13,840 [INFO ] W-29500-benchmark_1.0-stdout MODEL_LOG -     (model_decoder_layers_5_fc2): Linear(in_features=20480, out_features=5120, bias=True)
2023-05-08T18:29:13,840 [INFO ] W-29500-benchmark_1.0-stdout MODEL_LOG -     (model_decoder_layers_6_self_attn_layer_norm): LayerNorm((5120,), eps=1e-05, elementwise_affine=True)
2023-05-08T18:29:13,840 [INFO ] W-29500-benchmark_1.0-stdout MODEL_LOG -     (model_decoder_layers_6_self_attn_q_proj): Linear(in_features=5120, out_features=5120, bias=True)
2023-05-08T18:29:13,840 [INFO ] W-29500-benchmark_1.0-stdout MODEL_LOG -     (model_decoder_layers_6_self_attn_k_proj): Linear(in_features=5120, out_features=5120, bias=True)
2023-05-08T18:29:13,840 [INFO ] W-29500-benchmark_1.0-stdout MODEL_LOG -     (model_decoder_layers_6_self_attn_v_proj): Linear(in_features=5120, out_features=5120, bias=True)
2023-05-08T18:29:13,840 [INFO ] W-29500-benchmark_1.0-stdout MODEL_LOG -     (model_decoder_layers_6_self_attn_out_proj): Linear(in_features=5120, out_features=5120, bias=True)
2023-05-08T18:29:13,840 [INFO ] W-29500-benchmark_1.0-stdout MODEL_LOG -     (model_decoder_layers_6_final_layer_norm): LayerNorm((5120,), eps=1e-05, elementwise_affine=True)
2023-05-08T18:29:13,840 [INFO ] W-29500-benchmark_1.0-stdout MODEL_LOG -     (model_decoder_layers_6_fc1): Linear(in_features=5120, out_features=20480, bias=True)
2023-05-08T18:29:13,840 [INFO ] W-29500-benchmark_1.0-stdout MODEL_LOG -     (model_decoder_layers_6_activation_fn): ReLU()
2023-05-08T18:29:13,840 [INFO ] W-29500-benchmark_1.0-stdout MODEL_LOG -     (model_decoder_layers_6_fc2): Linear(in_features=20480, out_features=5120, bias=True)
2023-05-08T18:29:13,840 [INFO ] W-29500-benchmark_1.0-stdout MODEL_LOG -     (model_decoder_layers_7_self_attn_layer_norm): LayerNorm((5120,), eps=1e-05, elementwise_affine=True)
2023-05-08T18:29:13,840 [INFO ] W-29500-benchmark_1.0-stdout MODEL_LOG -     (model_decoder_layers_7_self_attn_q_proj): Linear(in_features=5120, out_features=5120, bias=True)
2023-05-08T18:29:13,840 [INFO ] W-29500-benchmark_1.0-stdout MODEL_LOG -     (model_decoder_layers_7_self_attn_k_proj): Linear(in_features=5120, out_features=5120, bias=True)
2023-05-08T18:29:13,840 [INFO ] W-29500-benchmark_1.0-stdout MODEL_LOG -     (model_decoder_layers_7_self_attn_v_proj): Linear(in_features=5120, out_features=5120, bias=True)
2023-05-08T18:29:13,841 [INFO ] W-29500-benchmark_1.0-stdout MODEL_LOG -     (model_decoder_layers_7_self_attn_out_proj): Linear(in_features=5120, out_features=5120, bias=True)
2023-05-08T18:29:13,841 [INFO ] W-29500-benchmark_1.0-stdout MODEL_LOG -     (model_decoder_layers_7_final_layer_norm): LayerNorm((5120,), eps=1e-05, elementwise_affine=True)
2023-05-08T18:29:13,841 [INFO ] W-29500-benchmark_1.0-stdout MODEL_LOG -     (model_decoder_layers_7_fc1): Linear(in_features=5120, out_features=20480, bias=True)
2023-05-08T18:29:13,841 [INFO ] W-29500-benchmark_1.0-stdout MODEL_LOG -     (model_decoder_layers_7_activation_fn): ReLU()
2023-05-08T18:29:13,841 [INFO ] W-29500-benchmark_1.0-stdout MODEL_LOG -     (model_decoder_layers_7_fc2): Linear(in_features=20480, out_features=5120, bias=True)
2023-05-08T18:29:13,841 [INFO ] W-29500-benchmark_1.0-stdout MODEL_LOG -     (model_decoder_layers_8_self_attn_layer_norm): LayerNorm((5120,), eps=1e-05, elementwise_affine=True)
2023-05-08T18:29:13,841 [INFO ] W-29500-benchmark_1.0-stdout MODEL_LOG -     (model_decoder_layers_8_self_attn_q_proj): Linear(in_features=5120, out_features=5120, bias=True)
2023-05-08T18:29:13,841 [INFO ] W-29500-benchmark_1.0-stdout MODEL_LOG -     (model_decoder_layers_8_self_attn_k_proj): Linear(in_features=5120, out_features=5120, bias=True)
2023-05-08T18:29:13,841 [INFO ] W-29500-benchmark_1.0-stdout MODEL_LOG -     (model_decoder_layers_8_self_attn_v_proj): Linear(in_features=5120, out_features=5120, bias=True)
2023-05-08T18:29:13,841 [INFO ] W-29500-benchmark_1.0-stdout MODEL_LOG -     (model_decoder_layers_8_self_attn_out_proj): Linear(in_features=5120, out_features=5120, bias=True)
2023-05-08T18:29:13,841 [INFO ] W-29500-benchmark_1.0-stdout MODEL_LOG -     (model_decoder_layers_8_final_layer_norm): LayerNorm((5120,), eps=1e-05, elementwise_affine=True)
2023-05-08T18:29:13,841 [INFO ] W-29500-benchmark_1.0-stdout MODEL_LOG -     (model_decoder_layers_8_fc1): Linear(in_features=5120, out_features=20480, bias=True)
2023-05-08T18:29:13,841 [INFO ] W-29500-benchmark_1.0-stdout MODEL_LOG -     (model_decoder_layers_8_activation_fn): ReLU()
2023-05-08T18:29:13,841 [INFO ] W-29500-benchmark_1.0-stdout MODEL_LOG -     (model_decoder_layers_8_fc2): Linear(in_features=20480, out_features=5120, bias=True)
2023-05-08T18:29:13,841 [INFO ] W-29500-benchmark_1.0-stdout MODEL_LOG -     (model_decoder_layers_9_self_attn_layer_norm): LayerNorm((5120,), eps=1e-05, elementwise_affine=True)
2023-05-08T18:29:13,841 [INFO ] W-29500-benchmark_1.0-stdout MODEL_LOG -     (model_decoder_layers_9_self_attn_q_proj): Linear(in_features=5120, out_features=5120, bias=True)
2023-05-08T18:29:13,842 [INFO ] W-29500-benchmark_1.0-stdout MODEL_LOG -     (model_decoder_layers_9_self_attn_k_proj): Linear(in_features=5120, out_features=5120, bias=True)
2023-05-08T18:29:13,842 [INFO ] W-29500-benchmark_1.0-stdout MODEL_LOG -     (model_decoder_layers_9_self_attn_v_proj): Linear(in_features=5120, out_features=5120, bias=True)
2023-05-08T18:29:13,842 [INFO ] W-29500-benchmark_1.0-stdout MODEL_LOG -     (model_decoder_layers_9_self_attn_out_proj): Linear(in_features=5120, out_features=5120, bias=True)
2023-05-08T18:29:13,842 [INFO ] W-29500-benchmark_1.0-stdout MODEL_LOG -     (model_decoder_layers_9_final_layer_norm): LayerNorm((5120,), eps=1e-05, elementwise_affine=True)
2023-05-08T18:29:13,842 [INFO ] W-29500-benchmark_1.0-stdout MODEL_LOG -   )
2023-05-08T18:29:13,842 [INFO ] W-29500-benchmark_1.0-stdout MODEL_LOG -   (submod_1): PipeStageModule(
2023-05-08T18:29:13,842 [INFO ] W-29500-benchmark_1.0-stdout MODEL_LOG -     (model_decoder_layers_9_fc1): Linear(in_features=5120, out_features=20480, bias=True)
2023-05-08T18:29:13,842 [INFO ] W-29500-benchmark_1.0-stdout MODEL_LOG -     (model_decoder_layers_9_activation_fn): ReLU()
2023-05-08T18:29:13,842 [INFO ] W-29500-benchmark_1.0-stdout MODEL_LOG -     (model_decoder_layers_9_fc2): Linear(in_features=20480, out_features=5120, bias=True)
2023-05-08T18:29:13,842 [INFO ] W-29500-benchmark_1.0-stdout MODEL_LOG -     (model_decoder_layers_10_self_attn_layer_norm): LayerNorm((5120,), eps=1e-05, elementwise_affine=True)
2023-05-08T18:29:13,842 [INFO ] W-29500-benchmark_1.0-stdout MODEL_LOG -     (model_decoder_layers_10_self_attn_q_proj): Linear(in_features=5120, out_features=5120, bias=True)
2023-05-08T18:29:13,842 [INFO ] W-29500-benchmark_1.0-stdout MODEL_LOG -     (model_decoder_layers_10_self_attn_k_proj): Linear(in_features=5120, out_features=5120, bias=True)
2023-05-08T18:29:13,842 [INFO ] W-29500-benchmark_1.0-stdout MODEL_LOG -     (model_decoder_layers_10_self_attn_v_proj): Linear(in_features=5120, out_features=5120, bias=True)
2023-05-08T18:29:13,842 [INFO ] W-29500-benchmark_1.0-stdout MODEL_LOG -     (model_decoder_layers_10_self_attn_out_proj): Linear(in_features=5120, out_features=5120, bias=True)
2023-05-08T18:29:13,842 [INFO ] W-29500-benchmark_1.0-stdout MODEL_LOG -     (model_decoder_layers_10_final_layer_norm): LayerNorm((5120,), eps=1e-05, elementwise_affine=True)
2023-05-08T18:29:13,842 [INFO ] W-29500-benchmark_1.0-stdout MODEL_LOG -     (model_decoder_layers_10_fc1): Linear(in_features=5120, out_features=20480, bias=True)
2023-05-08T18:29:13,843 [INFO ] W-29500-benchmark_1.0-stdout MODEL_LOG -     (model_decoder_layers_10_activation_fn): ReLU()
2023-05-08T18:29:13,843 [INFO ] W-29500-benchmark_1.0-stdout MODEL_LOG -     (model_decoder_layers_10_fc2): Linear(in_features=20480, out_features=5120, bias=True)
2023-05-08T18:29:13,843 [INFO ] W-29500-benchmark_1.0-stdout MODEL_LOG -     (model_decoder_layers_11_self_attn_layer_norm): LayerNorm((5120,), eps=1e-05, elementwise_affine=True)
2023-05-08T18:29:13,843 [INFO ] W-29500-benchmark_1.0-stdout MODEL_LOG -     (model_decoder_layers_11_self_attn_q_proj): Linear(in_features=5120, out_features=5120, bias=True)
2023-05-08T18:29:13,843 [INFO ] W-29500-benchmark_1.0-stdout MODEL_LOG -     (model_decoder_layers_11_self_attn_k_proj): Linear(in_features=5120, out_features=5120, bias=True)
2023-05-08T18:29:13,843 [INFO ] W-29500-benchmark_1.0-stdout MODEL_LOG -     (model_decoder_layers_11_self_attn_v_proj): Linear(in_features=5120, out_features=5120, bias=True)
2023-05-08T18:29:13,843 [INFO ] W-29500-benchmark_1.0-stdout MODEL_LOG -     (model_decoder_layers_11_self_attn_out_proj): Linear(in_features=5120, out_features=5120, bias=True)
2023-05-08T18:29:13,843 [INFO ] W-29500-benchmark_1.0-stdout MODEL_LOG -     (model_decoder_layers_11_final_layer_norm): LayerNorm((5120,), eps=1e-05, elementwise_affine=True)
2023-05-08T18:29:13,843 [INFO ] W-29500-benchmark_1.0-stdout MODEL_LOG -     (model_decoder_layers_11_fc1): Linear(in_features=5120, out_features=20480, bias=True)
2023-05-08T18:29:13,843 [INFO ] W-29500-benchmark_1.0-stdout MODEL_LOG -     (model_decoder_layers_11_activation_fn): ReLU()
2023-05-08T18:29:13,843 [INFO ] W-29500-benchmark_1.0-stdout MODEL_LOG -     (model_decoder_layers_11_fc2): Linear(in_features=20480, out_features=5120, bias=True)
2023-05-08T18:29:13,843 [INFO ] W-29500-benchmark_1.0-stdout MODEL_LOG -     (model_decoder_layers_12_self_attn_layer_norm): LayerNorm((5120,), eps=1e-05, elementwise_affine=True)
2023-05-08T18:29:13,843 [INFO ] W-29500-benchmark_1.0-stdout MODEL_LOG -     (model_decoder_layers_12_self_attn_q_proj): Linear(in_features=5120, out_features=5120, bias=True)
2023-05-08T18:29:13,843 [INFO ] W-29500-benchmark_1.0-stdout MODEL_LOG -     (model_decoder_layers_12_self_attn_k_proj): Linear(in_features=5120, out_features=5120, bias=True)
2023-05-08T18:29:13,843 [INFO ] W-29500-benchmark_1.0-stdout MODEL_LOG -     (model_decoder_layers_12_self_attn_v_proj): Linear(in_features=5120, out_features=5120, bias=True)
2023-05-08T18:29:13,843 [INFO ] W-29500-benchmark_1.0-stdout MODEL_LOG -     (model_decoder_layers_12_self_attn_out_proj): Linear(in_features=5120, out_features=5120, bias=True)
2023-05-08T18:29:13,843 [INFO ] W-29500-benchmark_1.0-stdout MODEL_LOG -     (model_decoder_layers_12_final_layer_norm): LayerNorm((5120,), eps=1e-05, elementwise_affine=True)
2023-05-08T18:29:13,844 [INFO ] W-29500-benchmark_1.0-stdout MODEL_LOG -     (model_decoder_layers_12_fc1): Linear(in_features=5120, out_features=20480, bias=True)
2023-05-08T18:29:13,844 [INFO ] W-29500-benchmark_1.0-stdout MODEL_LOG -     (model_decoder_layers_12_activation_fn): ReLU()
2023-05-08T18:29:13,844 [INFO ] W-29500-benchmark_1.0-stdout MODEL_LOG -     (model_decoder_layers_12_fc2): Linear(in_features=20480, out_features=5120, bias=True)
2023-05-08T18:29:13,844 [INFO ] W-29500-benchmark_1.0-stdout MODEL_LOG -     (model_decoder_layers_13_self_attn_layer_norm): LayerNorm((5120,), eps=1e-05, elementwise_affine=True)
2023-05-08T18:29:13,844 [INFO ] W-29500-benchmark_1.0-stdout MODEL_LOG -     (model_decoder_layers_13_self_attn_q_proj): Linear(in_features=5120, out_features=5120, bias=True)
2023-05-08T18:29:13,844 [INFO ] W-29500-benchmark_1.0-stdout MODEL_LOG -     (model_decoder_layers_13_self_attn_k_proj): Linear(in_features=5120, out_features=5120, bias=True)
2023-05-08T18:29:13,844 [INFO ] W-29500-benchmark_1.0-stdout MODEL_LOG -     (model_decoder_layers_13_self_attn_v_proj): Linear(in_features=5120, out_features=5120, bias=True)
2023-05-08T18:29:13,844 [INFO ] W-29500-benchmark_1.0-stdout MODEL_LOG -     (model_decoder_layers_13_self_attn_out_proj): Linear(in_features=5120, out_features=5120, bias=True)
2023-05-08T18:29:13,844 [INFO ] W-29500-benchmark_1.0-stdout MODEL_LOG -     (model_decoder_layers_13_final_layer_norm): LayerNorm((5120,), eps=1e-05, elementwise_affine=True)
2023-05-08T18:29:13,844 [INFO ] W-29500-benchmark_1.0-stdout MODEL_LOG -     (model_decoder_layers_13_fc1): Linear(in_features=5120, out_features=20480, bias=True)
2023-05-08T18:29:13,844 [INFO ] W-29500-benchmark_1.0-stdout MODEL_LOG -     (model_decoder_layers_13_activation_fn): ReLU()
2023-05-08T18:29:13,844 [INFO ] W-29500-benchmark_1.0-stdout MODEL_LOG -     (model_decoder_layers_13_fc2): Linear(in_features=20480, out_features=5120, bias=True)
2023-05-08T18:29:13,844 [INFO ] W-29500-benchmark_1.0-stdout MODEL_LOG -     (model_decoder_layers_14_self_attn_layer_norm): LayerNorm((5120,), eps=1e-05, elementwise_affine=True)
2023-05-08T18:29:13,844 [INFO ] W-29500-benchmark_1.0-stdout MODEL_LOG -     (model_decoder_layers_14_self_attn_q_proj): Linear(in_features=5120, out_features=5120, bias=True)
2023-05-08T18:29:13,844 [INFO ] W-29500-benchmark_1.0-stdout MODEL_LOG -     (model_decoder_layers_14_self_attn_k_proj): Linear(in_features=5120, out_features=5120, bias=True)
2023-05-08T18:29:13,844 [INFO ] W-29500-benchmark_1.0-stdout MODEL_LOG -     (model_decoder_layers_14_self_attn_v_proj): Linear(in_features=5120, out_features=5120, bias=True)
2023-05-08T18:29:13,844 [INFO ] W-29500-benchmark_1.0-stdout MODEL_LOG -     (model_decoder_layers_14_self_attn_out_proj): Linear(in_features=5120, out_features=5120, bias=True)
2023-05-08T18:29:13,844 [INFO ] W-29500-benchmark_1.0-stdout MODEL_LOG -     (model_decoder_layers_14_final_layer_norm): LayerNorm((5120,), eps=1e-05, elementwise_affine=True)
2023-05-08T18:29:13,844 [INFO ] W-29500-benchmark_1.0-stdout MODEL_LOG -     (model_decoder_layers_14_fc1): Linear(in_features=5120, out_features=20480, bias=True)
2023-05-08T18:29:13,844 [INFO ] W-29500-benchmark_1.0-stdout MODEL_LOG -     (model_decoder_layers_14_activation_fn): ReLU()
2023-05-08T18:29:13,845 [INFO ] W-29500-benchmark_1.0-stdout MODEL_LOG -     (model_decoder_layers_14_fc2): Linear(in_features=20480, out_features=5120, bias=True)
2023-05-08T18:29:13,845 [INFO ] W-29500-benchmark_1.0-stdout MODEL_LOG -     (model_decoder_layers_15_self_attn_layer_norm): LayerNorm((5120,), eps=1e-05, elementwise_affine=True)
2023-05-08T18:29:13,845 [INFO ] W-29500-benchmark_1.0-stdout MODEL_LOG -     (model_decoder_layers_15_self_attn_q_proj): Linear(in_features=5120, out_features=5120, bias=True)
2023-05-08T18:29:13,845 [INFO ] W-29500-benchmark_1.0-stdout MODEL_LOG -     (model_decoder_layers_15_self_attn_k_proj): Linear(in_features=5120, out_features=5120, bias=True)
2023-05-08T18:29:13,845 [INFO ] W-29500-benchmark_1.0-stdout MODEL_LOG -     (model_decoder_layers_15_self_attn_v_proj): Linear(in_features=5120, out_features=5120, bias=True)
2023-05-08T18:29:13,845 [INFO ] W-29500-benchmark_1.0-stdout MODEL_LOG -     (model_decoder_layers_15_self_attn_out_proj): Linear(in_features=5120, out_features=5120, bias=True)
2023-05-08T18:29:13,845 [INFO ] W-29500-benchmark_1.0-stdout MODEL_LOG -     (model_decoder_layers_15_final_layer_norm): LayerNorm((5120,), eps=1e-05, elementwise_affine=True)
2023-05-08T18:29:13,845 [INFO ] W-29500-benchmark_1.0-stdout MODEL_LOG -     (model_decoder_layers_15_fc1): Linear(in_features=5120, out_features=20480, bias=True)
2023-05-08T18:29:13,845 [INFO ] W-29500-benchmark_1.0-stdout MODEL_LOG -     (model_decoder_layers_15_activation_fn): ReLU()
2023-05-08T18:29:13,845 [INFO ] W-29500-benchmark_1.0-stdout MODEL_LOG -     (model_decoder_layers_15_fc2): Linear(in_features=20480, out_features=5120, bias=True)
2023-05-08T18:29:13,845 [INFO ] W-29500-benchmark_1.0-stdout MODEL_LOG -     (model_decoder_layers_16_self_attn_layer_norm): LayerNorm((5120,), eps=1e-05, elementwise_affine=True)
2023-05-08T18:29:13,845 [INFO ] W-29500-benchmark_1.0-stdout MODEL_LOG -     (model_decoder_layers_16_self_attn_q_proj): Linear(in_features=5120, out_features=5120, bias=True)
2023-05-08T18:29:13,845 [INFO ] W-29500-benchmark_1.0-stdout MODEL_LOG -     (model_decoder_layers_16_self_attn_k_proj): Linear(in_features=5120, out_features=5120, bias=True)
2023-05-08T18:29:13,845 [INFO ] W-29500-benchmark_1.0-stdout MODEL_LOG -     (model_decoder_layers_16_self_attn_v_proj): Linear(in_features=5120, out_features=5120, bias=True)
2023-05-08T18:29:13,845 [INFO ] W-29500-benchmark_1.0-stdout MODEL_LOG -     (model_decoder_layers_16_self_attn_out_proj): Linear(in_features=5120, out_features=5120, bias=True)
2023-05-08T18:29:13,845 [INFO ] W-29500-benchmark_1.0-stdout MODEL_LOG -     (model_decoder_layers_16_final_layer_norm): LayerNorm((5120,), eps=1e-05, elementwise_affine=True)
2023-05-08T18:29:13,845 [INFO ] W-29500-benchmark_1.0-stdout MODEL_LOG -     (model_decoder_layers_16_fc1): Linear(in_features=5120, out_features=20480, bias=True)
2023-05-08T18:29:13,845 [INFO ] W-29500-benchmark_1.0-stdout MODEL_LOG -     (model_decoder_layers_16_activation_fn): ReLU()
2023-05-08T18:29:13,845 [INFO ] W-29500-benchmark_1.0-stdout MODEL_LOG -     (model_decoder_layers_16_fc2): Linear(in_features=20480, out_features=5120, bias=True)
2023-05-08T18:29:13,845 [INFO ] W-29500-benchmark_1.0-stdout MODEL_LOG -     (model_decoder_layers_17_self_attn_layer_norm): LayerNorm((5120,), eps=1e-05, elementwise_affine=True)
2023-05-08T18:29:13,845 [INFO ] W-29500-benchmark_1.0-stdout MODEL_LOG -     (model_decoder_layers_17_self_attn_q_proj): Linear(in_features=5120, out_features=5120, bias=True)
2023-05-08T18:29:13,845 [INFO ] W-29500-benchmark_1.0-stdout MODEL_LOG -     (model_decoder_layers_17_self_attn_k_proj): Linear(in_features=5120, out_features=5120, bias=True)
2023-05-08T18:29:13,845 [INFO ] W-29500-benchmark_1.0-stdout MODEL_LOG -     (model_decoder_layers_17_self_attn_v_proj): Linear(in_features=5120, out_features=5120, bias=True)
2023-05-08T18:29:13,846 [INFO ] W-29500-benchmark_1.0-stdout MODEL_LOG -     (model_decoder_layers_17_self_attn_out_proj): Linear(in_features=5120, out_features=5120, bias=True)
2023-05-08T18:29:13,846 [INFO ] W-29500-benchmark_1.0-stdout MODEL_LOG -     (model_decoder_layers_17_final_layer_norm): LayerNorm((5120,), eps=1e-05, elementwise_affine=True)
2023-05-08T18:29:13,846 [INFO ] W-29500-benchmark_1.0-stdout MODEL_LOG -     (model_decoder_layers_17_fc1): Linear(in_features=5120, out_features=20480, bias=True)
2023-05-08T18:29:13,846 [INFO ] W-29500-benchmark_1.0-stdout MODEL_LOG -     (model_decoder_layers_17_activation_fn): ReLU()
2023-05-08T18:29:13,846 [INFO ] W-29500-benchmark_1.0-stdout MODEL_LOG -     (model_decoder_layers_17_fc2): Linear(in_features=20480, out_features=5120, bias=True)
2023-05-08T18:29:13,846 [INFO ] W-29500-benchmark_1.0-stdout MODEL_LOG -     (model_decoder_layers_18_self_attn_layer_norm): LayerNorm((5120,), eps=1e-05, elementwise_affine=True)
2023-05-08T18:29:13,846 [INFO ] W-29500-benchmark_1.0-stdout MODEL_LOG -     (model_decoder_layers_18_self_attn_q_proj): Linear(in_features=5120, out_features=5120, bias=True)
2023-05-08T18:29:13,846 [INFO ] W-29500-benchmark_1.0-stdout MODEL_LOG -     (model_decoder_layers_18_self_attn_k_proj): Linear(in_features=5120, out_features=5120, bias=True)
2023-05-08T18:29:13,846 [INFO ] W-29500-benchmark_1.0-stdout MODEL_LOG -     (model_decoder_layers_18_self_attn_v_proj): Linear(in_features=5120, out_features=5120, bias=True)
2023-05-08T18:29:13,846 [INFO ] W-29500-benchmark_1.0-stdout MODEL_LOG -     (model_decoder_layers_18_self_attn_out_proj): Linear(in_features=5120, out_features=5120, bias=True)
2023-05-08T18:29:13,846 [INFO ] W-29500-benchmark_1.0-stdout MODEL_LOG -     (model_decoder_layers_18_final_layer_norm): LayerNorm((5120,), eps=1e-05, elementwise_affine=True)
2023-05-08T18:29:13,846 [INFO ] W-29500-benchmark_1.0-stdout MODEL_LOG -     (model_decoder_layers_18_fc1): Linear(in_features=5120, out_features=20480, bias=True)
2023-05-08T18:29:13,846 [INFO ] W-29500-benchmark_1.0-stdout MODEL_LOG -     (model_decoder_layers_18_activation_fn): ReLU()
2023-05-08T18:29:13,846 [INFO ] W-29500-benchmark_1.0-stdout MODEL_LOG -     (model_decoder_layers_18_fc2): Linear(in_features=20480, out_features=5120, bias=True)
2023-05-08T18:29:13,846 [INFO ] W-29500-benchmark_1.0-stdout MODEL_LOG -     (model_decoder_layers_19_self_attn_layer_norm): LayerNorm((5120,), eps=1e-05, elementwise_affine=True)
2023-05-08T18:29:13,846 [INFO ] W-29500-benchmark_1.0-stdout MODEL_LOG -     (model_decoder_layers_19_self_attn_q_proj): Linear(in_features=5120, out_features=5120, bias=True)
2023-05-08T18:29:13,846 [INFO ] W-29500-benchmark_1.0-stdout MODEL_LOG -     (model_decoder_layers_19_self_attn_k_proj): Linear(in_features=5120, out_features=5120, bias=True)
2023-05-08T18:29:13,846 [INFO ] W-29500-benchmark_1.0-stdout MODEL_LOG -     (model_decoder_layers_19_self_attn_v_proj): Linear(in_features=5120, out_features=5120, bias=True)
2023-05-08T18:29:13,846 [INFO ] W-29500-benchmark_1.0-stdout MODEL_LOG -     (model_decoder_layers_19_self_attn_out_proj): Linear(in_features=5120, out_features=5120, bias=True)
2023-05-08T18:29:13,846 [INFO ] W-29500-benchmark_1.0-stdout MODEL_LOG -     (model_decoder_layers_19_final_layer_norm): LayerNorm((5120,), eps=1e-05, elementwise_affine=True)
2023-05-08T18:29:13,847 [INFO ] W-29500-benchmark_1.0-stdout MODEL_LOG -   )
2023-05-08T18:29:13,847 [INFO ] W-29500-benchmark_1.0-stdout MODEL_LOG -   (submod_2): PipeStageModule(
2023-05-08T18:29:13,847 [INFO ] W-29500-benchmark_1.0-stdout MODEL_LOG -     (model_decoder_layers_19_fc1): Linear(in_features=5120, out_features=20480, bias=True)
2023-05-08T18:29:13,847 [INFO ] W-29500-benchmark_1.0-stdout MODEL_LOG -     (model_decoder_layers_19_activation_fn): ReLU()
2023-05-08T18:29:13,847 [INFO ] W-29500-benchmark_1.0-stdout MODEL_LOG -     (model_decoder_layers_19_fc2): Linear(in_features=20480, out_features=5120, bias=True)
2023-05-08T18:29:13,847 [INFO ] W-29500-benchmark_1.0-stdout MODEL_LOG -     (model_decoder_layers_20_self_attn_layer_norm): LayerNorm((5120,), eps=1e-05, elementwise_affine=True)
2023-05-08T18:29:13,847 [INFO ] W-29500-benchmark_1.0-stdout MODEL_LOG -     (model_decoder_layers_20_self_attn_q_proj): Linear(in_features=5120, out_features=5120, bias=True)
2023-05-08T18:29:13,847 [INFO ] W-29500-benchmark_1.0-stdout MODEL_LOG -     (model_decoder_layers_20_self_attn_k_proj): Linear(in_features=5120, out_features=5120, bias=True)
2023-05-08T18:29:13,847 [INFO ] W-29500-benchmark_1.0-stdout MODEL_LOG -     (model_decoder_layers_20_self_attn_v_proj): Linear(in_features=5120, out_features=5120, bias=True)
2023-05-08T18:29:13,847 [INFO ] W-29500-benchmark_1.0-stdout MODEL_LOG -     (model_decoder_layers_20_self_attn_out_proj): Linear(in_features=5120, out_features=5120, bias=True)
2023-05-08T18:29:13,847 [INFO ] W-29500-benchmark_1.0-stdout MODEL_LOG -     (model_decoder_layers_20_final_layer_norm): LayerNorm((5120,), eps=1e-05, elementwise_affine=True)
2023-05-08T18:29:13,847 [INFO ] W-29500-benchmark_1.0-stdout MODEL_LOG -     (model_decoder_layers_20_fc1): Linear(in_features=5120, out_features=20480, bias=True)
2023-05-08T18:29:13,847 [INFO ] W-29500-benchmark_1.0-stdout MODEL_LOG -     (model_decoder_layers_20_activation_fn): ReLU()
2023-05-08T18:29:13,847 [INFO ] W-29500-benchmark_1.0-stdout MODEL_LOG -     (model_decoder_layers_20_fc2): Linear(in_features=20480, out_features=5120, bias=True)
2023-05-08T18:29:13,847 [INFO ] W-29500-benchmark_1.0-stdout MODEL_LOG -     (model_decoder_layers_21_self_attn_layer_norm): LayerNorm((5120,), eps=1e-05, elementwise_affine=True)
2023-05-08T18:29:13,847 [INFO ] W-29500-benchmark_1.0-stdout MODEL_LOG -     (model_decoder_layers_21_self_attn_q_proj): Linear(in_features=5120, out_features=5120, bias=True)
2023-05-08T18:29:13,847 [INFO ] W-29500-benchmark_1.0-stdout MODEL_LOG -     (model_decoder_layers_21_self_attn_k_proj): Linear(in_features=5120, out_features=5120, bias=True)
2023-05-08T18:29:13,847 [INFO ] W-29500-benchmark_1.0-stdout MODEL_LOG -     (model_decoder_layers_21_self_attn_v_proj): Linear(in_features=5120, out_features=5120, bias=True)
2023-05-08T18:29:13,847 [INFO ] W-29500-benchmark_1.0-stdout MODEL_LOG -     (model_decoder_layers_21_self_attn_out_proj): Linear(in_features=5120, out_features=5120, bias=True)
2023-05-08T18:29:13,847 [INFO ] W-29500-benchmark_1.0-stdout MODEL_LOG -     (model_decoder_layers_21_final_layer_norm): LayerNorm((5120,), eps=1e-05, elementwise_affine=True)
2023-05-08T18:29:13,848 [INFO ] W-29500-benchmark_1.0-stdout MODEL_LOG -     (model_decoder_layers_21_fc1): Linear(in_features=5120, out_features=20480, bias=True)
2023-05-08T18:29:13,848 [INFO ] W-29500-benchmark_1.0-stdout MODEL_LOG -     (model_decoder_layers_21_activation_fn): ReLU()
2023-05-08T18:29:13,848 [INFO ] W-29500-benchmark_1.0-stdout MODEL_LOG -     (model_decoder_layers_21_fc2): Linear(in_features=20480, out_features=5120, bias=True)
2023-05-08T18:29:13,848 [INFO ] W-29500-benchmark_1.0-stdout MODEL_LOG -     (model_decoder_layers_22_self_attn_layer_norm): LayerNorm((5120,), eps=1e-05, elementwise_affine=True)
2023-05-08T18:29:13,848 [INFO ] W-29500-benchmark_1.0-stdout MODEL_LOG -     (model_decoder_layers_22_self_attn_q_proj): Linear(in_features=5120, out_features=5120, bias=True)
2023-05-08T18:29:13,848 [INFO ] W-29500-benchmark_1.0-stdout MODEL_LOG -     (model_decoder_layers_22_self_attn_k_proj): Linear(in_features=5120, out_features=5120, bias=True)
2023-05-08T18:29:13,848 [INFO ] W-29500-benchmark_1.0-stdout MODEL_LOG -     (model_decoder_layers_22_self_attn_v_proj): Linear(in_features=5120, out_features=5120, bias=True)
2023-05-08T18:29:13,848 [INFO ] W-29500-benchmark_1.0-stdout MODEL_LOG -     (model_decoder_layers_22_self_attn_out_proj): Linear(in_features=5120, out_features=5120, bias=True)
2023-05-08T18:29:13,848 [INFO ] W-29500-benchmark_1.0-stdout MODEL_LOG -     (model_decoder_layers_22_final_layer_norm): LayerNorm((5120,), eps=1e-05, elementwise_affine=True)
2023-05-08T18:29:13,848 [INFO ] W-29500-benchmark_1.0-stdout MODEL_LOG -     (model_decoder_layers_22_fc1): Linear(in_features=5120, out_features=20480, bias=True)
2023-05-08T18:29:13,848 [INFO ] W-29500-benchmark_1.0-stdout MODEL_LOG -     (model_decoder_layers_22_activation_fn): ReLU()
2023-05-08T18:29:13,848 [INFO ] W-29500-benchmark_1.0-stdout MODEL_LOG -     (model_decoder_layers_22_fc2): Linear(in_features=20480, out_features=5120, bias=True)
2023-05-08T18:29:13,848 [INFO ] W-29500-benchmark_1.0-stdout MODEL_LOG -     (model_decoder_layers_23_self_attn_layer_norm): LayerNorm((5120,), eps=1e-05, elementwise_affine=True)
2023-05-08T18:29:13,848 [INFO ] W-29500-benchmark_1.0-stdout MODEL_LOG -     (model_decoder_layers_23_self_attn_q_proj): Linear(in_features=5120, out_features=5120, bias=True)
2023-05-08T18:29:13,848 [INFO ] W-29500-benchmark_1.0-stdout MODEL_LOG -     (model_decoder_layers_23_self_attn_k_proj): Linear(in_features=5120, out_features=5120, bias=True)
2023-05-08T18:29:13,848 [INFO ] W-29500-benchmark_1.0-stdout MODEL_LOG -     (model_decoder_layers_23_self_attn_v_proj): Linear(in_features=5120, out_features=5120, bias=True)
2023-05-08T18:29:13,848 [INFO ] W-29500-benchmark_1.0-stdout MODEL_LOG -     (model_decoder_layers_23_self_attn_out_proj): Linear(in_features=5120, out_features=5120, bias=True)
2023-05-08T18:29:13,848 [INFO ] W-29500-benchmark_1.0-stdout MODEL_LOG -     (model_decoder_layers_23_final_layer_norm): LayerNorm((5120,), eps=1e-05, elementwise_affine=True)
2023-05-08T18:29:13,848 [INFO ] W-29500-benchmark_1.0-stdout MODEL_LOG -     (model_decoder_layers_23_fc1): Linear(in_features=5120, out_features=20480, bias=True)
2023-05-08T18:29:13,848 [INFO ] W-29500-benchmark_1.0-stdout MODEL_LOG -     (model_decoder_layers_23_activation_fn): ReLU()
2023-05-08T18:29:13,848 [INFO ] W-29500-benchmark_1.0-stdout MODEL_LOG -     (model_decoder_layers_23_fc2): Linear(in_features=20480, out_features=5120, bias=True)
2023-05-08T18:29:13,849 [INFO ] W-29500-benchmark_1.0-stdout MODEL_LOG -     (model_decoder_layers_24_self_attn_layer_norm): LayerNorm((5120,), eps=1e-05, elementwise_affine=True)
2023-05-08T18:29:13,849 [INFO ] W-29500-benchmark_1.0-stdout MODEL_LOG -     (model_decoder_layers_24_self_attn_q_proj): Linear(in_features=5120, out_features=5120, bias=True)
2023-05-08T18:29:13,849 [INFO ] W-29500-benchmark_1.0-stdout MODEL_LOG -     (model_decoder_layers_24_self_attn_k_proj): Linear(in_features=5120, out_features=5120, bias=True)
2023-05-08T18:29:13,849 [INFO ] W-29500-benchmark_1.0-stdout MODEL_LOG -     (model_decoder_layers_24_self_attn_v_proj): Linear(in_features=5120, out_features=5120, bias=True)
2023-05-08T18:29:13,849 [INFO ] W-29500-benchmark_1.0-stdout MODEL_LOG -     (model_decoder_layers_24_self_attn_out_proj): Linear(in_features=5120, out_features=5120, bias=True)
2023-05-08T18:29:13,849 [INFO ] W-29500-benchmark_1.0-stdout MODEL_LOG -     (model_decoder_layers_24_final_layer_norm): LayerNorm((5120,), eps=1e-05, elementwise_affine=True)
2023-05-08T18:29:13,849 [INFO ] W-29500-benchmark_1.0-stdout MODEL_LOG -     (model_decoder_layers_24_fc1): Linear(in_features=5120, out_features=20480, bias=True)
2023-05-08T18:29:13,849 [INFO ] W-29500-benchmark_1.0-stdout MODEL_LOG -     (model_decoder_layers_24_activation_fn): ReLU()
2023-05-08T18:29:13,849 [INFO ] W-29500-benchmark_1.0-stdout MODEL_LOG -     (model_decoder_layers_24_fc2): Linear(in_features=20480, out_features=5120, bias=True)
2023-05-08T18:29:13,849 [INFO ] W-29500-benchmark_1.0-stdout MODEL_LOG -     (model_decoder_layers_25_self_attn_layer_norm): LayerNorm((5120,), eps=1e-05, elementwise_affine=True)
2023-05-08T18:29:13,849 [INFO ] W-29500-benchmark_1.0-stdout MODEL_LOG -     (model_decoder_layers_25_self_attn_q_proj): Linear(in_features=5120, out_features=5120, bias=True)
2023-05-08T18:29:13,849 [INFO ] W-29500-benchmark_1.0-stdout MODEL_LOG -     (model_decoder_layers_25_self_attn_k_proj): Linear(in_features=5120, out_features=5120, bias=True)
2023-05-08T18:29:13,849 [INFO ] W-29500-benchmark_1.0-stdout MODEL_LOG -     (model_decoder_layers_25_self_attn_v_proj): Linear(in_features=5120, out_features=5120, bias=True)
2023-05-08T18:29:13,849 [INFO ] W-29500-benchmark_1.0-stdout MODEL_LOG -     (model_decoder_layers_25_self_attn_out_proj): Linear(in_features=5120, out_features=5120, bias=True)
2023-05-08T18:29:13,849 [INFO ] W-29500-benchmark_1.0-stdout MODEL_LOG -     (model_decoder_layers_25_final_layer_norm): LayerNorm((5120,), eps=1e-05, elementwise_affine=True)
2023-05-08T18:29:13,849 [INFO ] W-29500-benchmark_1.0-stdout MODEL_LOG -     (model_decoder_layers_25_fc1): Linear(in_features=5120, out_features=20480, bias=True)
2023-05-08T18:29:13,849 [INFO ] W-29500-benchmark_1.0-stdout MODEL_LOG -     (model_decoder_layers_25_activation_fn): ReLU()
2023-05-08T18:29:13,850 [INFO ] W-29500-benchmark_1.0-stdout MODEL_LOG -     (model_decoder_layers_25_fc2): Linear(in_features=20480, out_features=5120, bias=True)
2023-05-08T18:29:13,850 [INFO ] W-29500-benchmark_1.0-stdout MODEL_LOG -     (model_decoder_layers_26_self_attn_layer_norm): LayerNorm((5120,), eps=1e-05, elementwise_affine=True)
2023-05-08T18:29:13,850 [INFO ] W-29500-benchmark_1.0-stdout MODEL_LOG -     (model_decoder_layers_26_self_attn_q_proj): Linear(in_features=5120, out_features=5120, bias=True)
2023-05-08T18:29:13,850 [INFO ] W-29500-benchmark_1.0-stdout MODEL_LOG -     (model_decoder_layers_26_self_attn_k_proj): Linear(in_features=5120, out_features=5120, bias=True)
2023-05-08T18:29:13,850 [INFO ] W-29500-benchmark_1.0-stdout MODEL_LOG -     (model_decoder_layers_26_self_attn_v_proj): Linear(in_features=5120, out_features=5120, bias=True)
2023-05-08T18:29:13,850 [INFO ] W-29500-benchmark_1.0-stdout MODEL_LOG -     (model_decoder_layers_26_self_attn_out_proj): Linear(in_features=5120, out_features=5120, bias=True)
2023-05-08T18:29:13,850 [INFO ] W-29500-benchmark_1.0-stdout MODEL_LOG -     (model_decoder_layers_26_final_layer_norm): LayerNorm((5120,), eps=1e-05, elementwise_affine=True)
2023-05-08T18:29:13,850 [INFO ] W-29500-benchmark_1.0-stdout MODEL_LOG -     (model_decoder_layers_26_fc1): Linear(in_features=5120, out_features=20480, bias=True)
2023-05-08T18:29:13,850 [INFO ] W-29500-benchmark_1.0-stdout MODEL_LOG -     (model_decoder_layers_26_activation_fn): ReLU()
2023-05-08T18:29:13,850 [INFO ] W-29500-benchmark_1.0-stdout MODEL_LOG -     (model_decoder_layers_26_fc2): Linear(in_features=20480, out_features=5120, bias=True)
2023-05-08T18:29:13,850 [INFO ] W-29500-benchmark_1.0-stdout MODEL_LOG -     (model_decoder_layers_27_self_attn_layer_norm): LayerNorm((5120,), eps=1e-05, elementwise_affine=True)
2023-05-08T18:29:13,850 [INFO ] W-29500-benchmark_1.0-stdout MODEL_LOG -     (model_decoder_layers_27_self_attn_q_proj): Linear(in_features=5120, out_features=5120, bias=True)
2023-05-08T18:29:13,850 [INFO ] W-29500-benchmark_1.0-stdout MODEL_LOG -     (model_decoder_layers_27_self_attn_k_proj): Linear(in_features=5120, out_features=5120, bias=True)
2023-05-08T18:29:13,850 [INFO ] W-29500-benchmark_1.0-stdout MODEL_LOG -     (model_decoder_layers_27_self_attn_v_proj): Linear(in_features=5120, out_features=5120, bias=True)
2023-05-08T18:29:13,850 [INFO ] W-29500-benchmark_1.0-stdout MODEL_LOG -     (model_decoder_layers_27_self_attn_out_proj): Linear(in_features=5120, out_features=5120, bias=True)
2023-05-08T18:29:13,850 [INFO ] W-29500-benchmark_1.0-stdout MODEL_LOG -     (model_decoder_layers_27_final_layer_norm): LayerNorm((5120,), eps=1e-05, elementwise_affine=True)
2023-05-08T18:29:13,850 [INFO ] W-29500-benchmark_1.0-stdout MODEL_LOG -     (model_decoder_layers_27_fc1): Linear(in_features=5120, out_features=20480, bias=True)
2023-05-08T18:29:13,850 [INFO ] W-29500-benchmark_1.0-stdout MODEL_LOG -     (model_decoder_layers_27_activation_fn): ReLU()
2023-05-08T18:29:13,850 [INFO ] W-29500-benchmark_1.0-stdout MODEL_LOG -     (model_decoder_layers_27_fc2): Linear(in_features=20480, out_features=5120, bias=True)
2023-05-08T18:29:13,850 [INFO ] W-29500-benchmark_1.0-stdout MODEL_LOG -     (model_decoder_layers_28_self_attn_layer_norm): LayerNorm((5120,), eps=1e-05, elementwise_affine=True)
2023-05-08T18:29:13,850 [INFO ] W-29500-benchmark_1.0-stdout MODEL_LOG -     (model_decoder_layers_28_self_attn_q_proj): Linear(in_features=5120, out_features=5120, bias=True)
2023-05-08T18:29:13,850 [INFO ] W-29500-benchmark_1.0-stdout MODEL_LOG -     (model_decoder_layers_28_self_attn_k_proj): Linear(in_features=5120, out_features=5120, bias=True)
2023-05-08T18:29:13,850 [INFO ] W-29500-benchmark_1.0-stdout MODEL_LOG -     (model_decoder_layers_28_self_attn_v_proj): Linear(in_features=5120, out_features=5120, bias=True)
2023-05-08T18:29:13,850 [INFO ] W-29500-benchmark_1.0-stdout MODEL_LOG -     (model_decoder_layers_28_self_attn_out_proj): Linear(in_features=5120, out_features=5120, bias=True)
2023-05-08T18:29:13,850 [INFO ] W-29500-benchmark_1.0-stdout MODEL_LOG -     (model_decoder_layers_28_final_layer_norm): LayerNorm((5120,), eps=1e-05, elementwise_affine=True)
2023-05-08T18:29:13,850 [INFO ] W-29500-benchmark_1.0-stdout MODEL_LOG -     (model_decoder_layers_28_fc1): Linear(in_features=5120, out_features=20480, bias=True)
2023-05-08T18:29:13,850 [INFO ] W-29500-benchmark_1.0-stdout MODEL_LOG -     (model_decoder_layers_28_activation_fn): ReLU()
2023-05-08T18:29:13,850 [INFO ] W-29500-benchmark_1.0-stdout MODEL_LOG -     (model_decoder_layers_28_fc2): Linear(in_features=20480, out_features=5120, bias=True)
2023-05-08T18:29:13,850 [INFO ] W-29500-benchmark_1.0-stdout MODEL_LOG -     (model_decoder_layers_29_self_attn_layer_norm): LayerNorm((5120,), eps=1e-05, elementwise_affine=True)
2023-05-08T18:29:13,851 [INFO ] W-29500-benchmark_1.0-stdout MODEL_LOG -     (model_decoder_layers_29_self_attn_q_proj): Linear(in_features=5120, out_features=5120, bias=True)
2023-05-08T18:29:13,851 [INFO ] W-29500-benchmark_1.0-stdout MODEL_LOG -     (model_decoder_layers_29_self_attn_k_proj): Linear(in_features=5120, out_features=5120, bias=True)
2023-05-08T18:29:13,851 [INFO ] W-29500-benchmark_1.0-stdout MODEL_LOG -     (model_decoder_layers_29_self_attn_v_proj): Linear(in_features=5120, out_features=5120, bias=True)
2023-05-08T18:29:13,851 [INFO ] W-29500-benchmark_1.0-stdout MODEL_LOG -     (model_decoder_layers_29_self_attn_out_proj): Linear(in_features=5120, out_features=5120, bias=True)
2023-05-08T18:29:13,851 [INFO ] W-29500-benchmark_1.0-stdout MODEL_LOG -     (model_decoder_layers_29_final_layer_norm): LayerNorm((5120,), eps=1e-05, elementwise_affine=True)
2023-05-08T18:29:13,851 [INFO ] W-29500-benchmark_1.0-stdout MODEL_LOG -   )
2023-05-08T18:29:13,851 [INFO ] W-29500-benchmark_1.0-stdout MODEL_LOG -   (submod_3): PipeStageModule(
2023-05-08T18:29:13,851 [INFO ] W-29500-benchmark_1.0-stdout MODEL_LOG -     (model_decoder_layers_29_fc1): Linear(in_features=5120, out_features=20480, bias=True)
2023-05-08T18:29:13,851 [INFO ] W-29500-benchmark_1.0-stdout MODEL_LOG -     (model_decoder_layers_29_activation_fn): ReLU()
2023-05-08T18:29:13,851 [INFO ] W-29500-benchmark_1.0-stdout MODEL_LOG -     (model_decoder_layers_29_fc2): Linear(in_features=20480, out_features=5120, bias=True)
2023-05-08T18:29:13,851 [INFO ] W-29500-benchmark_1.0-stdout MODEL_LOG -     (model_decoder_layers_30_self_attn_layer_norm): LayerNorm((5120,), eps=1e-05, elementwise_affine=True)
2023-05-08T18:29:13,851 [INFO ] W-29500-benchmark_1.0-stdout MODEL_LOG -     (model_decoder_layers_30_self_attn_q_proj): Linear(in_features=5120, out_features=5120, bias=True)
2023-05-08T18:29:13,851 [INFO ] W-29500-benchmark_1.0-stdout MODEL_LOG -     (model_decoder_layers_30_self_attn_k_proj): Linear(in_features=5120, out_features=5120, bias=True)
2023-05-08T18:29:13,851 [INFO ] W-29500-benchmark_1.0-stdout MODEL_LOG -     (model_decoder_layers_30_self_attn_v_proj): Linear(in_features=5120, out_features=5120, bias=True)
2023-05-08T18:29:13,851 [INFO ] W-29500-benchmark_1.0-stdout MODEL_LOG -     (model_decoder_layers_30_self_attn_out_proj): Linear(in_features=5120, out_features=5120, bias=True)
2023-05-08T18:29:13,851 [INFO ] W-29500-benchmark_1.0-stdout MODEL_LOG -     (model_decoder_layers_30_final_layer_norm): LayerNorm((5120,), eps=1e-05, elementwise_affine=True)
2023-05-08T18:29:13,851 [INFO ] W-29500-benchmark_1.0-stdout MODEL_LOG -     (model_decoder_layers_30_fc1): Linear(in_features=5120, out_features=20480, bias=True)
2023-05-08T18:29:13,851 [INFO ] W-29500-benchmark_1.0-stdout MODEL_LOG -     (model_decoder_layers_30_activation_fn): ReLU()
2023-05-08T18:29:13,851 [INFO ] W-29500-benchmark_1.0-stdout MODEL_LOG -     (model_decoder_layers_30_fc2): Linear(in_features=20480, out_features=5120, bias=True)
2023-05-08T18:29:13,851 [INFO ] W-29500-benchmark_1.0-stdout MODEL_LOG -     (model_decoder_layers_31_self_attn_layer_norm): LayerNorm((5120,), eps=1e-05, elementwise_affine=True)
2023-05-08T18:29:13,851 [INFO ] W-29500-benchmark_1.0-stdout MODEL_LOG -     (model_decoder_layers_31_self_attn_q_proj): Linear(in_features=5120, out_features=5120, bias=True)
2023-05-08T18:29:13,851 [INFO ] W-29500-benchmark_1.0-stdout MODEL_LOG -     (model_decoder_layers_31_self_attn_k_proj): Linear(in_features=5120, out_features=5120, bias=True)
2023-05-08T18:29:13,851 [INFO ] W-29500-benchmark_1.0-stdout MODEL_LOG -     (model_decoder_layers_31_self_attn_v_proj): Linear(in_features=5120, out_features=5120, bias=True)
2023-05-08T18:29:13,851 [INFO ] W-29500-benchmark_1.0-stdout MODEL_LOG -     (model_decoder_layers_31_self_attn_out_proj): Linear(in_features=5120, out_features=5120, bias=True)
2023-05-08T18:29:13,851 [INFO ] W-29500-benchmark_1.0-stdout MODEL_LOG -     (model_decoder_layers_31_final_layer_norm): LayerNorm((5120,), eps=1e-05, elementwise_affine=True)
2023-05-08T18:29:13,851 [INFO ] W-29500-benchmark_1.0-stdout MODEL_LOG -     (model_decoder_layers_31_fc1): Linear(in_features=5120, out_features=20480, bias=True)
2023-05-08T18:29:13,851 [INFO ] W-29500-benchmark_1.0-stdout MODEL_LOG -     (model_decoder_layers_31_activation_fn): ReLU()
2023-05-08T18:29:13,851 [INFO ] W-29500-benchmark_1.0-stdout MODEL_LOG -     (model_decoder_layers_31_fc2): Linear(in_features=20480, out_features=5120, bias=True)
2023-05-08T18:29:13,851 [INFO ] W-29500-benchmark_1.0-stdout MODEL_LOG -     (model_decoder_layers_32_self_attn_layer_norm): LayerNorm((5120,), eps=1e-05, elementwise_affine=True)
2023-05-08T18:29:13,851 [INFO ] W-29500-benchmark_1.0-stdout MODEL_LOG -     (model_decoder_layers_32_self_attn_q_proj): Linear(in_features=5120, out_features=5120, bias=True)
2023-05-08T18:29:13,851 [INFO ] W-29500-benchmark_1.0-stdout MODEL_LOG -     (model_decoder_layers_32_self_attn_k_proj): Linear(in_features=5120, out_features=5120, bias=True)
2023-05-08T18:29:13,851 [INFO ] W-29500-benchmark_1.0-stdout MODEL_LOG -     (model_decoder_layers_32_self_attn_v_proj): Linear(in_features=5120, out_features=5120, bias=True)
2023-05-08T18:29:13,851 [INFO ] W-29500-benchmark_1.0-stdout MODEL_LOG -     (model_decoder_layers_32_self_attn_out_proj): Linear(in_features=5120, out_features=5120, bias=True)
2023-05-08T18:29:13,851 [INFO ] W-29500-benchmark_1.0-stdout MODEL_LOG -     (model_decoder_layers_32_final_layer_norm): LayerNorm((5120,), eps=1e-05, elementwise_affine=True)
2023-05-08T18:29:13,852 [INFO ] W-29500-benchmark_1.0-stdout MODEL_LOG -     (model_decoder_layers_32_fc1): Linear(in_features=5120, out_features=20480, bias=True)
2023-05-08T18:29:13,852 [INFO ] W-29500-benchmark_1.0-stdout MODEL_LOG -     (model_decoder_layers_32_activation_fn): ReLU()
2023-05-08T18:29:13,852 [INFO ] W-29500-benchmark_1.0-stdout MODEL_LOG -     (model_decoder_layers_32_fc2): Linear(in_features=20480, out_features=5120, bias=True)
2023-05-08T18:29:13,852 [INFO ] W-29500-benchmark_1.0-stdout MODEL_LOG -     (model_decoder_layers_33_self_attn_layer_norm): LayerNorm((5120,), eps=1e-05, elementwise_affine=True)
2023-05-08T18:29:13,852 [INFO ] W-29500-benchmark_1.0-stdout MODEL_LOG -     (model_decoder_layers_33_self_attn_q_proj): Linear(in_features=5120, out_features=5120, bias=True)
2023-05-08T18:29:13,852 [INFO ] W-29500-benchmark_1.0-stdout MODEL_LOG -     (model_decoder_layers_33_self_attn_k_proj): Linear(in_features=5120, out_features=5120, bias=True)
2023-05-08T18:29:13,852 [INFO ] W-29500-benchmark_1.0-stdout MODEL_LOG -     (model_decoder_layers_33_self_attn_v_proj): Linear(in_features=5120, out_features=5120, bias=True)
2023-05-08T18:29:13,852 [INFO ] W-29500-benchmark_1.0-stdout MODEL_LOG -     (model_decoder_layers_33_self_attn_out_proj): Linear(in_features=5120, out_features=5120, bias=True)
2023-05-08T18:29:13,852 [INFO ] W-29500-benchmark_1.0-stdout MODEL_LOG -     (model_decoder_layers_33_final_layer_norm): LayerNorm((5120,), eps=1e-05, elementwise_affine=True)
2023-05-08T18:29:13,852 [INFO ] W-29500-benchmark_1.0-stdout MODEL_LOG -     (model_decoder_layers_33_fc1): Linear(in_features=5120, out_features=20480, bias=True)
2023-05-08T18:29:13,852 [INFO ] W-29500-benchmark_1.0-stdout MODEL_LOG -     (model_decoder_layers_33_activation_fn): ReLU()
2023-05-08T18:29:13,852 [INFO ] W-29500-benchmark_1.0-stdout MODEL_LOG -     (model_decoder_layers_33_fc2): Linear(in_features=20480, out_features=5120, bias=True)
2023-05-08T18:29:13,852 [INFO ] W-29500-benchmark_1.0-stdout MODEL_LOG -     (model_decoder_layers_34_self_attn_layer_norm): LayerNorm((5120,), eps=1e-05, elementwise_affine=True)
2023-05-08T18:29:13,852 [INFO ] W-29500-benchmark_1.0-stdout MODEL_LOG -     (model_decoder_layers_34_self_attn_q_proj): Linear(in_features=5120, out_features=5120, bias=True)
2023-05-08T18:29:13,852 [INFO ] W-29500-benchmark_1.0-stdout MODEL_LOG -     (model_decoder_layers_34_self_attn_k_proj): Linear(in_features=5120, out_features=5120, bias=True)
2023-05-08T18:29:13,852 [INFO ] W-29500-benchmark_1.0-stdout MODEL_LOG -     (model_decoder_layers_34_self_attn_v_proj): Linear(in_features=5120, out_features=5120, bias=True)
2023-05-08T18:29:13,852 [INFO ] W-29500-benchmark_1.0-stdout MODEL_LOG -     (model_decoder_layers_34_self_attn_out_proj): Linear(in_features=5120, out_features=5120, bias=True)
2023-05-08T18:29:13,852 [INFO ] W-29500-benchmark_1.0-stdout MODEL_LOG -     (model_decoder_layers_34_final_layer_norm): LayerNorm((5120,), eps=1e-05, elementwise_affine=True)
2023-05-08T18:29:13,852 [INFO ] W-29500-benchmark_1.0-stdout MODEL_LOG -     (model_decoder_layers_34_fc1): Linear(in_features=5120, out_features=20480, bias=True)
2023-05-08T18:29:13,852 [INFO ] W-29500-benchmark_1.0-stdout MODEL_LOG -     (model_decoder_layers_34_activation_fn): ReLU()
2023-05-08T18:29:13,852 [INFO ] W-29500-benchmark_1.0-stdout MODEL_LOG -     (model_decoder_layers_34_fc2): Linear(in_features=20480, out_features=5120, bias=True)
2023-05-08T18:29:13,852 [INFO ] W-29500-benchmark_1.0-stdout MODEL_LOG -     (model_decoder_layers_35_self_attn_layer_norm): LayerNorm((5120,), eps=1e-05, elementwise_affine=True)
2023-05-08T18:29:13,852 [INFO ] W-29500-benchmark_1.0-stdout MODEL_LOG -     (model_decoder_layers_35_self_attn_q_proj): Linear(in_features=5120, out_features=5120, bias=True)
2023-05-08T18:29:13,852 [INFO ] W-29500-benchmark_1.0-stdout MODEL_LOG -     (model_decoder_layers_35_self_attn_k_proj): Linear(in_features=5120, out_features=5120, bias=True)
2023-05-08T18:29:13,852 [INFO ] W-29500-benchmark_1.0-stdout MODEL_LOG -     (model_decoder_layers_35_self_attn_v_proj): Linear(in_features=5120, out_features=5120, bias=True)
2023-05-08T18:29:13,852 [INFO ] W-29500-benchmark_1.0-stdout MODEL_LOG -     (model_decoder_layers_35_self_attn_out_proj): Linear(in_features=5120, out_features=5120, bias=True)
2023-05-08T18:29:13,852 [INFO ] W-29500-benchmark_1.0-stdout MODEL_LOG -     (model_decoder_layers_35_final_layer_norm): LayerNorm((5120,), eps=1e-05, elementwise_affine=True)
2023-05-08T18:29:13,852 [INFO ] W-29500-benchmark_1.0-stdout MODEL_LOG -     (model_decoder_layers_35_fc1): Linear(in_features=5120, out_features=20480, bias=True)
2023-05-08T18:29:13,852 [INFO ] W-29500-benchmark_1.0-stdout MODEL_LOG -     (model_decoder_layers_35_activation_fn): ReLU()
2023-05-08T18:29:13,852 [INFO ] W-29500-benchmark_1.0-stdout MODEL_LOG -     (model_decoder_layers_35_fc2): Linear(in_features=20480, out_features=5120, bias=True)
2023-05-08T18:29:13,852 [INFO ] W-29500-benchmark_1.0-stdout MODEL_LOG -     (model_decoder_layers_36_self_attn_layer_norm): LayerNorm((5120,), eps=1e-05, elementwise_affine=True)
2023-05-08T18:29:13,852 [INFO ] W-29500-benchmark_1.0-stdout MODEL_LOG -     (model_decoder_layers_36_self_attn_q_proj): Linear(in_features=5120, out_features=5120, bias=True)
2023-05-08T18:29:13,852 [INFO ] W-29500-benchmark_1.0-stdout MODEL_LOG -     (model_decoder_layers_36_self_attn_k_proj): Linear(in_features=5120, out_features=5120, bias=True)
2023-05-08T18:29:13,852 [INFO ] W-29500-benchmark_1.0-stdout MODEL_LOG -     (model_decoder_layers_36_self_attn_v_proj): Linear(in_features=5120, out_features=5120, bias=True)
2023-05-08T18:29:13,852 [INFO ] W-29500-benchmark_1.0-stdout MODEL_LOG -     (model_decoder_layers_36_self_attn_out_proj): Linear(in_features=5120, out_features=5120, bias=True)
2023-05-08T18:29:13,852 [INFO ] W-29500-benchmark_1.0-stdout MODEL_LOG -     (model_decoder_layers_36_final_layer_norm): LayerNorm((5120,), eps=1e-05, elementwise_affine=True)
2023-05-08T18:29:13,852 [INFO ] W-29500-benchmark_1.0-stdout MODEL_LOG -     (model_decoder_layers_36_fc1): Linear(in_features=5120, out_features=20480, bias=True)
2023-05-08T18:29:13,852 [INFO ] W-29500-benchmark_1.0-stdout MODEL_LOG -     (model_decoder_layers_36_activation_fn): ReLU()
2023-05-08T18:29:13,852 [INFO ] W-29500-benchmark_1.0-stdout MODEL_LOG -     (model_decoder_layers_36_fc2): Linear(in_features=20480, out_features=5120, bias=True)
2023-05-08T18:29:13,853 [INFO ] W-29500-benchmark_1.0-stdout MODEL_LOG -     (model_decoder_layers_37_self_attn_layer_norm): LayerNorm((5120,), eps=1e-05, elementwise_affine=True)
2023-05-08T18:29:13,853 [INFO ] W-29500-benchmark_1.0-stdout MODEL_LOG -     (model_decoder_layers_37_self_attn_q_proj): Linear(in_features=5120, out_features=5120, bias=True)
2023-05-08T18:29:13,853 [INFO ] W-29500-benchmark_1.0-stdout MODEL_LOG -     (model_decoder_layers_37_self_attn_k_proj): Linear(in_features=5120, out_features=5120, bias=True)
2023-05-08T18:29:13,853 [INFO ] W-29500-benchmark_1.0-stdout MODEL_LOG -     (model_decoder_layers_37_self_attn_v_proj): Linear(in_features=5120, out_features=5120, bias=True)
2023-05-08T18:29:13,853 [INFO ] W-29500-benchmark_1.0-stdout MODEL_LOG -     (model_decoder_layers_37_self_attn_out_proj): Linear(in_features=5120, out_features=5120, bias=True)
2023-05-08T18:29:13,853 [INFO ] W-29500-benchmark_1.0-stdout MODEL_LOG -     (model_decoder_layers_37_final_layer_norm): LayerNorm((5120,), eps=1e-05, elementwise_affine=True)
2023-05-08T18:29:13,853 [INFO ] W-29500-benchmark_1.0-stdout MODEL_LOG -     (model_decoder_layers_37_fc1): Linear(in_features=5120, out_features=20480, bias=True)
2023-05-08T18:29:13,853 [INFO ] W-29500-benchmark_1.0-stdout MODEL_LOG -     (model_decoder_layers_37_activation_fn): ReLU()
2023-05-08T18:29:13,853 [INFO ] W-29500-benchmark_1.0-stdout MODEL_LOG -     (model_decoder_layers_37_fc2): Linear(in_features=20480, out_features=5120, bias=True)
2023-05-08T18:29:13,853 [INFO ] W-29500-benchmark_1.0-stdout MODEL_LOG -     (model_decoder_layers_38_self_attn_layer_norm): LayerNorm((5120,), eps=1e-05, elementwise_affine=True)
2023-05-08T18:29:13,853 [INFO ] W-29500-benchmark_1.0-stdout MODEL_LOG -     (model_decoder_layers_38_self_attn_q_proj): Linear(in_features=5120, out_features=5120, bias=True)
2023-05-08T18:29:13,853 [INFO ] W-29500-benchmark_1.0-stdout MODEL_LOG -     (model_decoder_layers_38_self_attn_k_proj): Linear(in_features=5120, out_features=5120, bias=True)
2023-05-08T18:29:13,853 [INFO ] W-29500-benchmark_1.0-stdout MODEL_LOG -     (model_decoder_layers_38_self_attn_v_proj): Linear(in_features=5120, out_features=5120, bias=True)
2023-05-08T18:29:13,853 [INFO ] W-29500-benchmark_1.0-stdout MODEL_LOG -     (model_decoder_layers_38_self_attn_out_proj): Linear(in_features=5120, out_features=5120, bias=True)
2023-05-08T18:29:13,853 [INFO ] W-29500-benchmark_1.0-stdout MODEL_LOG -     (model_decoder_layers_38_final_layer_norm): LayerNorm((5120,), eps=1e-05, elementwise_affine=True)
2023-05-08T18:29:13,853 [INFO ] W-29500-benchmark_1.0-stdout MODEL_LOG -     (model_decoder_layers_38_fc1): Linear(in_features=5120, out_features=20480, bias=True)
2023-05-08T18:29:13,853 [INFO ] W-29500-benchmark_1.0-stdout MODEL_LOG -     (model_decoder_layers_38_activation_fn): ReLU()
2023-05-08T18:29:13,853 [INFO ] W-29500-benchmark_1.0-stdout MODEL_LOG -     (model_decoder_layers_38_fc2): Linear(in_features=20480, out_features=5120, bias=True)
2023-05-08T18:29:13,853 [INFO ] W-29500-benchmark_1.0-stdout MODEL_LOG -     (model_decoder_layers_39_self_attn_layer_norm): LayerNorm((5120,), eps=1e-05, elementwise_affine=True)
2023-05-08T18:29:13,853 [INFO ] W-29500-benchmark_1.0-stdout MODEL_LOG -     (model_decoder_layers_39_self_attn_q_proj): Linear(in_features=5120, out_features=5120, bias=True)
2023-05-08T18:29:13,853 [INFO ] W-29500-benchmark_1.0-stdout MODEL_LOG -     (model_decoder_layers_39_self_attn_k_proj): Linear(in_features=5120, out_features=5120, bias=True)
2023-05-08T18:29:13,853 [INFO ] W-29500-benchmark_1.0-stdout MODEL_LOG -     (model_decoder_layers_39_self_attn_v_proj): Linear(in_features=5120, out_features=5120, bias=True)
2023-05-08T18:29:13,853 [INFO ] W-29500-benchmark_1.0-stdout MODEL_LOG -     (model_decoder_layers_39_self_attn_out_proj): Linear(in_features=5120, out_features=5120, bias=True)
2023-05-08T18:29:13,853 [INFO ] W-29500-benchmark_1.0-stdout MODEL_LOG -     (model_decoder_layers_39_final_layer_norm): LayerNorm((5120,), eps=1e-05, elementwise_affine=True)
2023-05-08T18:29:13,853 [INFO ] W-29500-benchmark_1.0-stdout MODEL_LOG -     (model_decoder_layers_39_fc1): Linear(in_features=5120, out_features=20480, bias=True)
2023-05-08T18:29:13,853 [INFO ] W-29500-benchmark_1.0-stdout MODEL_LOG -     (model_decoder_layers_39_activation_fn): ReLU()
2023-05-08T18:29:13,853 [INFO ] W-29500-benchmark_1.0-stdout MODEL_LOG -     (model_decoder_layers_39_fc2): Linear(in_features=20480, out_features=5120, bias=True)
2023-05-08T18:29:13,853 [INFO ] W-29500-benchmark_1.0-stdout MODEL_LOG -     (model_decoder_final_layer_norm): LayerNorm((5120,), eps=1e-05, elementwise_affine=True)
2023-05-08T18:29:13,853 [INFO ] W-29500-benchmark_1.0-stdout MODEL_LOG -     (lm_head): Linear(in_features=5120, out_features=50272, bias=False)
2023-05-08T18:29:13,853 [INFO ] W-29500-benchmark_1.0-stdout MODEL_LOG -   )
2023-05-08T18:29:13,853 [INFO ] W-29500-benchmark_1.0-stdout MODEL_LOG - )
2023-05-08T18:29:13,853 [INFO ] W-29500-benchmark_1.0-stdout MODEL_LOG -
2023-05-08T18:29:13,853 [INFO ] W-29500-benchmark_1.0-stdout MODEL_LOG -
2023-05-08T18:29:13,853 [INFO ] W-29500-benchmark_1.0-stdout MODEL_LOG -
…
